…
2</span><br></pre></td><td class="code"><pre><span class="line"><span class="comment"># 让我们来看一下网络情况</span></span><br><span class="line">paddle.summary(net,(<span class="number">1</span>, <span class="number">1</span>, <span class="number">28</span>, <span class="number">28</span>))</span><br></pre></td></tr></table></figure><pre><code>--------------------------------------------------------------------------- Layer (type)       Input Shape          Output Shape         Param #    ===========================================================================   Conv2D-1       [[1, 1, 28, 28]]      [1, 6, 28, 28]          156         Sigmoid-1      [[1, 6, 28, 28]]      [1, 6, 28, 28]           0         AvgPool2D-1     [[1, 6, 28, 28]]      [1, 6, 14, 14]           0          Conv2D-2       [[1, 6, 14, 14]]     [1, 16, 10, 10]         2,416        Sigmoid-2     [[1, 16, 10, 10]]     [1, 16, 10, 10]           0         AvgPool2D-2    [[1, 16, 10, 10]]      [1, 16, 5, 5]            0          Flatten-1      [[1, 16, 5, 5]]          [1, 400]              0          Linear-1          [[1, 400]]            [1, 120]           48,120        Sigmoid-3         [[1, 120]]            [1, 120]              0          Linear-2          [[1, 120]]            [1, 84]            10,164        Sigmoid-4         [[1, 84]]             [1, 84]               0          Linear-3          [[1, 84]]             [1, 10]              850      ===========================================================================Total params: 61,706Trainable params: 61,706Non-trainable params: 0---------------------------------------------------------------------------Input size (MB): 0.00Forward/backward pass size (MB): 0.11Params size (MB): 0.24Estimated Total Size (MB): 0.35------------------------------------------------------------------
…
rd">return</span> out</span><br><span class="line"></span><br><span class="line">network_2 = LeNet()</span><br><span class="line">paddle.summary(network_2,(<span class="number">1</span>, <span class="number">1</span>, <span class="number">28</span>, <span class="number">28</span>))</span><br></pre></td></tr></table></figure><pre><code>--------------------------------------------------------------------------- Layer (type)       Input Shape          Output Shape         Param #    ===========================================================================   Conv2D-3       [[1, 1, 28, 28]]      [1, 6, 28, 28]          60          Sigmoid-5      [[1, 6, 28, 28]]      [1, 6, 28, 28]           0         MaxPool2D-1     [[1, 6, 28, 28]]      [1, 6, 14, 14]           0          Conv2D-4       [[1, 6, 14, 14]]     [1, 16, 10, 10]         2,416        Sigmoid-6     [[1, 16, 10, 10]]     [1, 16, 10, 10]           0         MaxPool2D-2    [[1, 16, 10, 10]]      [1, 16, 5, 5]            0          Linear-4          [[1, 400]]            [1, 120]           48,120        Linear-5          [[1, 120]]            [1, 84]            10,164        Linear-6          [[1, 84]]             [1, 10]              850      ===========================================================================Total params: 61,610Trainable params: 61,610Non-trainable params: 0---------------------------------------------------------------------------Input size (MB): 0.00Forward/backward pass size (MB): 0.11Params size (MB): 0.24Estimated Total Size (MB): 0.35------------------------------------------------------------------
…
